stanza_resources/en/tokenize/combined.pt (torch_old, 650849 bytes, 23 tensors)

embeddings.weight f4 [230, 32]
0	0x00000000	0.0
1	0x00000000	0.0
2	0x00000000	0.0
3	0x00000000	0.0
4	0x00000000	0.0
5	0x00000000	0.0
6	0x00000000	0.0
7	0x00000000	0.0
8	0x00000000	0.0
9	0x00000000	0.0
10	0x00000000	0.0
11	0x00000000	0.0
12	0x00000000	0.0
13	0x00000000	0.0
14	0x00000000	0.0
15	0x00000000	0.0
16	0x00000000	0.0
17	0x00000000	0.0
18	0x00000000	0.0
19	0x00000000	0.0
20	0x00000000	0.0
21	0x00000000	0.0
22	0x00000000	0.0
23	0x00000000	0.0
24	0x00000000	0.0
25	0x00000000	0.0
26	0x00000000	0.0
27	0x00000000	0.0
28	0x00000000	0.0
29	0x00000000	0.0
30	0x00000000	0.0
31	0x00000000	0.0
32	0xb9c16d7a	-0.00036893395
33	0x3bd72014	0.0065651033
34	0x3d21c824	0.03949751
35	0xbdd9a7fe	-0.10627745
36	0xbd3bafb5	-0.045821864
37	0x3d11217c	0.035432324
38	0xbe3236a4	-0.17403656
39	0x3d964d16	0.07338922
40	0x3d8fc612	0.07020201
41	0x3bdf2f46	0.0068110554
42	0xbb9cf373	-0.0047897636
43	0x3d45666b	0.048193377
44	0x3d9c4746	0.07630782
45	0xbd9ee745	-0.07758955
46	0x3dc64ea6	0.0968297
47	0xbb3bd347	-0.0028659867
48	0x3e5017d0	0.20321584
49	0x3c54abb7	0.012980393
50	0xbe0b202a	-0.13586488
51	0xbe249e6e	-0.16076061
52	0xbe069698	-0.13143384
53	0x3cff7a56	0.031186264
54	0xbe1ac98d	-0.15115948
55	0x3d5f908b	0.054581206
56	0x3dc58cf8	0.09646028
57	0x3da42703	0.080152534
58	0x3d912e29	0.070888825
59	0x3daaa3c6	0.083320186
60	0x3cd03bf1	0.025419207
61	0xbdcca4dc	-0.09992382
62	0xbe2a3303	-0.16621022
63	0x3cada097	0.02119474
64	0x3f541ec2	0.8285943
65	0x3f696952	0.9117633
66	0x3ea3f99f	0.32026383
67	0xbe258a3e	-0.16166016
68	0x3f2a5b47	0.6654553
69	0xbf4f3d5b	-0.80952996
70	0x3ea599dc	0.32343948
71	0x3f3dba44	0.74112344
72	0x3e542d75	0.20720465
73	0x3db7c8f4	0.08973876
74	0xbf9556d2	-1.166712
75	0x3f511787	0.81676525
76	0x3fa0ba8b	1.2556928
77	0x3df75bc8	0.12078053
78	0xbf1c3ebf	-0.6103324
79	0x3f10a15c	0.56496215
80	0x3f481910	0.7816324
81	0xbf24849e	-0.6426486
82	0xbf4680e6	-0.77540433
83	0xbf40ce33	-0.75314635
84	0x3f27946b	0.6546084
85	0x3f167fd7	0.5878882
86	0xbde8aeb9	-0.11361451
87	0x3f20ebc4	0.6285975
88	0x3f50543c	0.8137853
89	0xbf880eab	-1.0629476
90	0xbe03e582	-0.12880519
91	0xbf5d24ce	-0.86384284
92	0x3f0aed30	0.5426817
93	0x3fc290ff	1.5200499
94	0xbfe2b162	-1.7710383
95	0x3efe1b8b	0.4963039
96	0x3dbb9b40	0.09160471
97	0x3f54e7b6	0.8316606
98	0xbe925317	-0.28579018
99	0x3d80c602	0.06287767
100	0x3e77e19d	0.24207158
101	0x3e1e3346	0.15449247
102	0xbf4176c3	-0.7557184
103	0xbec339c2	-0.38130003
104	0xbee3f4ba	-0.4452265
105	0x3d9307c7	0.07179218
106	0xbebe46fb	-0.3716353
107	0x3e1fa4f5	0.1559027
108	0x3db7389f	0.089463465
109	0x3e947d44	0.2900182
110	0xbe8cb034	-0.27478182
111	0xbe00375a	-0.12521115
112	0x3e612a77	0.21988855
113	0x3dd2c6cb	0.10291823
114	0x3fc1c801	1.5139161
115	0x3fce6180	1.6123505
116	0xbee7e01d	-0.45288172
117	0xbe6447ad	-0.22292967
118	0x3f5f3b8e	0.8720025
119	0x3f2fc5c7	0.6866116
120	0xbe806bbe	-0.250822
121	0xbf15be87	-0.58493847
122	0xbe6ec137	-0.23315893
123	0x3f7f16b4	0.9964402
124	0x3e85b0a0	0.26111317
125	0xbaafb48c	-0.0013405248
126	0x3f5e1c5b	0.86762017
127	0xbe104d0b	-0.1409189
128	0xbda1a73e	-0.07893227
129	0xbe0391b3	-0.12848549
130	0xbf5a847a	-0.85358393
131	0x3ec2fa8f	0.38081786
132	0x3f08bc00	0.53411865
133	0xbdbbe275	-0.091740526
134	0xbe806d92	-0.25083596
135	0xbf4f7ae6	-0.81046903
136	0xbf63142b	-0.8870265
137	0x3dc019fe	0.093799576
138	0xbef9d38d	-0.48794213
139	0xbf1bed9e	-0.6090945
140	0x3ed9d712	0.42546898
141	0xbe80b2bf	-0.25136372
142	0x3f64e2dc	0.8940866
143	0x3f0d800c	0.5527351
144	0xbf43b172	-0.76442635
145	0x3f08ec4d	0.53485566
146	0x3dbb8490	0.09156144
147	0xbf38979f	-0.72106355
148	0xbf85a9c6	-1.0442436
149	0xbefc623e	-0.49293703
150	0x3e7e5741	0.24837972
151	0x3f18bd96	0.59664285
152	0xbf943c31	-1.1580869
153	0xbf0b9603	-0.54525775
154	0x3ea35566	0.3190109
155	0xbf9bb651	-1.2165014
156	0xbeb8acfe	-0.36069483
157	0xbe1b9c15	-0.1519626
158	0xbda3e1e4	-0.080020696
159	0xbfd1d8cb	-1.6394285
160	0xbdc3c019	-0.09558124
161	0xbf37590a	-0.7162024
162	0xbf990118	-1.1953459
163	0x3efa79de	0.48921102
164	0x3e102eb2	0.14080313
165	0x3e0780a9	0.13232674
166	0x3f00fd7d	0.5038679
167	0x3f6b1205	0.9182437
168	0xbfff8d23	-1.9964947
169	0xbf14daec	-0.5814655
170	0x3fc705fe	1.5548704
171	0x3f107618	0.56430197
172	0xbf481240	-0.7815285
173	0xbe269371	-0.16267182
174	0xbe4d50e5	-0.2005039
175	0xbf2d77b8	-0.677608
176	0xbe88b011	-0.26696828
177	0xbd9c9ec8	-0.076474726
178	0xbe773514	-0.24141341
179	0xbe025b29	-0.12730087
180	0x3e8e8b0b	0.27840456
181	0xbec43c61	-0.38327315
182	0xbe8097b0	-0.25115728
183	0x3eec000c	0.46093786
184	0x3e283638	0.16426933
185	0xbea7aa28	-0.32747006
186	0xbe84d822	-0.25946146
187	0x3f97ed18	1.186923
188	0xbd50bb5f	-0.05095994
189	0x3fc61496	1.5475032
190	0xbf1a4db2	-0.60274804
191	0x3f0056d5	0.50132495
192	0xbf939ef7	-1.1532887
193	0x3e976b56	0.29574078
194	0xbf17dab8	-0.59318113
195	0x3f9c877e	1.2228849
196	0x3fc7f731	1.5622312
197	0x3dbb0801	0.09132386
198	0xbeaf75b4	-0.34269488
199	0xbef9ae61	-0.48765853
200	0x3d9ea812	0.077469006
201	0xbf361d91	-0.71138865
202	0x3f5b416e	0.8564671
203	0xbece7a45	-0.4032766
204	0xbee31c99	-0.44357756
205	0xbf18f1f2	-0.5974418
206	0xbec1563b	-0.377611
207	0xbf9956ed	-1.1979653
208	0x3e4dbfb8	0.20092666
209	0x3be519f6	0.00699162
210	0xbf22d375	-0.6360391
211	0xbe8050aa	-0.25061542
212	0xbf843e7e	-1.0331571
213	0x3f02ac9d	0.51044637
214	0xbd4778de	-0.048699252
215	0xbe2cb39e	-0.16865394
216	0x3f42010a	0.75782835
217	0xbf2063f6	-0.6265253
218	0x3e6aeff7	0.22943102
219	0xbe96c4fb	-0.2944716
220	0x3ee05b2a	0.43819553
221	0x3fad6066	1.3545043
222	0x3e575b22	0.21030858
223	0xbec152b0	-0.37758398
224	0x3cce8dff	0.025214193
225	0xbdb4ded6	-0.08831565
226	0xbdd76021	-0.10516382
227	0x3fd738c5	1.68142
228	0x3e91ce1e	0.28477567
229	0xbdc606a4	-0.09669235
230	0x3f5e2623	0.8677694
231	0x3d3456d7	0.04402813
232	0xbd1f7922	-0.03893388
233	0xbfee83fa	-1.8634026
234	0xbf120051	-0.5703173
235	0x3d0c717e	0.034287922
236	0xbe92c979	-0.28669336
237	0x3ebc9843	0.36834916
238	0xbef1aa77	-0.47200367
239	0x3da217f6	0.079147264
240	0xbe25d282	-0.16193584
241	0x3e4de1dd	0.20105691
242	0xbdc9df67	-0.09857064
243	0x3db8d445	0.09024862
244	0x3e6ec24c	0.23316306
245	0x3db81151	0.08987678
246	0xbde0b657	-0.109722786
247	0xbf0f2388	-0.5591359
248	0xbe0f18f5	-0.13974364
249	0x3dff04ba	0.124520734
250	0xbeae048c	-0.33987844
251	0x3d1d71f6	0.03843876
252	0xbe2bc84f	-0.1677563
253	0x3dd56537	0.10419696
254	0x3f31b39c	0.6941469
255	0xbf0f92a4	-0.5608313

rnn.weight_ih_l0 f4 [256, 37]
0	0x3c49a60e	0.012307657
1	0xbe7c497f	-0.24637412
2	0x3e6dc2c0	0.23218822
3	0x3d6b83bf	0.05749869
4	0x3d9314bb	0.071816884
5	0x3d699774	0.057029203
6	0x3d1a8f86	0.03773453
7	0x3e126d75	0.14299567
8	0x3c309984	0.0107787885
9	0x3daafd0c	0.08349046
10	0xbd01bf07	-0.03167632
11	0xbc588555	-0.013215383
12	0x3c8c6357	0.017137213
13	0xbe85ea44	-0.26155293
14	0xbccf1317	-0.025277657
15	0x3dd1d03b	0.10244795
16	0x3d5ed75f	0.054404613
17	0xbe31d201	-0.17365266
18	0x3df49835	0.11943094
19	0x3d560978	0.052255124
20	0x3d760dfd	0.060071934
21	0x3dff1dbd	0.12456844
22	0x3deb7893	0.11497607
23	0x3dbf77c7	0.093490176
24	0xbd781d48	-0.0605748
25	0xbda4667e	-0.08027361
26	0x3e308499	0.17238082
27	0xbe4248a1	-0.18973018
28	0xb9ef5f2f	-0.0004565655
29	0x3df6f429	0.120582886
30	0x3aedb80c	0.0018136515
31	0xbc63ee83	-0.013911846
32	0x3fd1b744	1.6384053
33	0x3e89fa40	0.26948738
34	0x3fa53c01	1.2908937
35	0x40292219	2.6427062
36	0x3fce73b8	1.6129065
37	0x3f3b98c8	0.7328
38	0xbeb28843	-0.34869584
39	0x3e6b2965	0.2296501
40	0xbf0772bd	-0.5290945
41	0x3e6a92d0	0.22907567
42	0x3e39ee22	0.18157247
43	0xbd237eb3	-0.03991575
44	0x3e917b4d	0.28414384
45	0x3e453e77	0.1926211
46	0x3f080b67	0.531424
47	0xbed88c54	-0.42294562
48	0x3f1d5602	0.6145936
49	0x3eef23c1	0.46706966
50	0xbd689ab2	-0.056788154
51	0xbd302898	-0.043007463
52	0x3ea9f1e2	0.33192354
53	0x3e8869cf	0.26643226
54	0x3cf69702	0.030101303
55	0x3e389ece	0.18029329
56	0xbe6c5b33	-0.23081665
57	0xbe8ef3c6	-0.2792036
58	0x3ee0b01b	0.43884358
59	0x3e92522e	0.28578323
60	0xbe01d3b5	-0.12678416
61	0x3f3c91d9	0.73660046
62	0xbcb7273e	-0.02235758
63	0x3eb2c28f	0.3491406
64	0x3e9bbda6	0.30418128
65	0x3e3189d6	0.17337736
66	0xbf0ff25f	-0.56229204
67	0x3dd6b094	0.10482898
68	0x3cf7ac5b	0.030233553
69	0x3fb08c47	1.3792809
70	0xbd8024ce	-0.0625702
71	0xbf7eab7e	-0.99480426
72	0xbea050be	-0.313116
73	0x3e61405d	0.21997209
74	0xbe69de7e	-0.2283878
75	0x3eeb7f57	0.4599559
76	0xbe25a8b9	-0.16177644
77	0x3d8879a0	0.06663823
78	0xbe3d9d73	-0.18517093
79	0x3e50a0c1	0.20373823
80	0xbe9bee7a	-0.3045538
81	0x3dcab898	0.0989849
82	0xbe1c706c	-0.1527726
83	0x3e702732	0.23452452
84	0xbe84537c	-0.25844944
85	0x3e7ce350	0.24696088
86	0x3f009955	0.50233966
87	0xbbc478a6	-0.0059958277
88	0x3e28407c	0.16430849
89	0xbeb5883d	-0.35455504
90	0x3e7c4eb1	0.24639393
91	0x3ea44885	0.32086578
92	0xbecc0b9a	-0.398526
93	0xbcc69d2f	-0.024244873
94	0xbe87eb18	-0.2654655
95	0x3efa23ff	0.48855588
96	0xbe4d826a	-0.2006928
97	0x3e600246	0.21875867
98	0x3d935432	0.07193793
99	0xbec16057	-0.37768814
100	0xbde7e51b	-0.11322995
101	0x3df0bbd0	0.117545724
102	0xbe0bcc27	-0.13652097
103	0x3e209a17	0.1568378
104	0xbef58945	-0.4795629
105	0xbda822a3	-0.082097314
106	0x401173ba	2.2726884
107	0xbf687a4e	-0.9081162
108	0xbe7097a7	-0.23495351
109	0x3f0a8d87	0.54122204
110	0xbeeb479e	-0.45953077
111	0x3d25a17f	0.040437218
112	0x3e0b1772	0.13583162
113	0x3d9b9128	0.07596046
114	0xbef1724d	-0.47157517
115	0x3c28e993	0.010309595
116	0xbd839eaa	-0.06426747
117	0x3d97ae78	0.07406324
118	0xbe28574d	-0.16439553
119	0xbe811482	-0.2521096
120	0x3ed011ae	0.4063849
121	0xbc811428	-0.015756682
122	0x3ec84e7d	0.39122382
123	0x3e6eaa57	0.23307167
124	0x3e1dd017	0.15411411
125	0xbe739702	-0.23788074
126	0x3e998fc6	0.29992503
127	0xbc54f8b1	-0.012998746
128	0x3ead568b	0.3385509
129	0xbd838590	-0.064219594
130	0x3ec542fd	0.3852767
131	0xbe9387e2	-0.28814608
132	0xbd9c4c78	-0.07631773
133	0x3e50dc5f	0.20396565
134	0x3da1d1b0	0.07901323
135	0xbe3e5b67	-0.18589555
136	0x3d0d164a	0.034445085
137	0x3eb782c5	0.35841957
138	0x3e08f581	0.13374902
139	0x3dcfe8d9	0.10151834
140	0xbe3db80a	-0.18527237
141	0x3f0a6a54	0.54068494
142	0x3e6647ae	0.22488281
143	0xbf388c8c	-0.7208946
144	0xc002faef	-2.0465658
145	0x3ea72911	0.3264852
146	0x4078f464	3.8899164
147	0xbe689c02	-0.22715762
148	0x3e0c3547	0.13692199
149	0x3d3efb85	0.046626586
150	0xbea15ac7	-0.3151457
151	0x3e9031b0	0.2816291
152	0x3cfa3778	0.030544028
153	0x3e2c38cc	0.16818541
154	0x3d4a6078	0.049408406
155	0x3cf6dd36	0.030134778
156	0x3e23531c	0.15949672
157	0x3dd52573	0.104075335
158	0x3e591095	0.21197732
159	0xbe10431e	-0.14088103
160	0xbdb04214	-0.086063534
161	0xbe24f46a	-0.16108862
162	0x3e26f558	0.16304529
163	0x3d3d8cd9	0.0462769
164	0xbd2f570c	-0.042807624
165	0x3f0a4376	0.5400919
166	0xbe77634e	-0.24158975
167	0xbe0315d8	-0.12801301
168	0x3e29b8db	0.16574423
169	0x3d9c137a	0.07620902
170	0x3dc72a74	0.09724894
171	0xbe04601c	-0.12927288
172	0x3e234a35	0.15946276
173	0xbe43f753	-0.19137315
174	0x3e044726	0.12917766
175	0xbdae4e69	-0.08511049
176	0xbdfd1fe2	-0.12359597
177	0x3ee20f6f	0.441524
178	0xbe743644	-0.23848826
179	0x3e26b451	0.16279723
180	0xbf2d0f23	-0.6760122
181	0xbeefa047	-0.4680197
182	0x3fccd9fb	1.6004022
183	0x40490266	3.1407714
184	0xbee9a5ee	-0.45634407
185	0xbe6fa9a4	-0.23404557
186	0x3f369df6	0.7133478
187	0x3ea1f355	0.3163096
188	0x3e281e53	0.16417818
189	0xbe8cd5b9	-0.27506807
190	0x3df36a29	0.11885483
191	0x3d17424a	0.036928453
192	0xbdf08a98	-0.11745185
193	0x3ea15f66	0.31518096
194	0x3df0621c	0.11737463
195	0xbdcd14c2	-0.10013725
196	0x3da68059	0.08129949
197	0xbf3af17e	-0.7302474
198	0xbe2c89ab	-0.16849391
199	0xbdccf99a	-0.10008545
200	0xbdbd29ac	-0.09236464
201	0xbe24955d	-0.16072603
202	0xbe436b12	-0.19083813
203	0x3e5e99c3	0.21738343
204	0x3de356b4	0.11100522
205	0xbde3685b	-0.111038886
206	0xbed77f4a	-0.420893
207	0x3dc9883e	0.09840439
208	0xbea35004	-0.31896985
209	0x3d5069e1	0.050882224
210	0x3e05a016	0.13049349
211	0xbce05553	-0.027384436
212	0xbdb04082	-0.08606054
213	0x3e3b3f5e	0.18285891
214	0x3e9b9afe	0.30391687
215	0x3f034c1c	0.5128801
216	0xbe15b593	-0.14620046
217	0xbf41fee8	-0.7577958
218	0xbfa3f6a7	-1.2809647
219	0xbd30a1a4	-0.043122903
220	0xbe200d1f	-0.15630005
221	0x3e817c78	0.25290275
222	0x3eb49173	0.3526722
223	0x3e47fb9a	0.19529572
224	0xbe9b4559	-0.30326346
225	0xbdbec3d1	-0.09314693
226	0xbdef4abe	-0.11684178
227	0x3e9baf82	0.3040734
228	0xbed34f21	-0.41271308
229	0xbe1b80ca	-0.15185848
230	0xbe95b6c4	-0.29241002
231	0x3ddd3827	0.10801726
232	0x3e507499	0.20356978
233	0x3e444b44	0.19169337
234	0xbf100a64	-0.56265855
235	0xbda97dea	-0.08275969
236	0xbe196681	-0.14980508
237	0xbcb1268d	-0.021624828
238	0x3da39f37	0.07989352
239	0xbdff752e	-0.12473522
240	0xbe01a25f	-0.12659596
241	0xbd8db7b7	-0.069198065
242	0xbe161a11	-0.14658381
243	0x3ce099b3	0.02741704
244	0xbd132a70	-0.035929143
245	0x3d73030e	0.059329085
246	0x3e5e2fd3	0.21697931
247	0x3e31a526	0.17348155
248	0xbe236c22	-0.15959218
249	0xbe2d3510	-0.16914773
250	0x3e2941f0	0.1652906
251	0x3e1d3081	0.15350534
252	0x3ea34331	0.318872
253	0x3e54c603	0.2077866
254	0xbe2c6a58	-0.16837442
255	0x3ea35706	0.3190233

rnn.weight_hh_l0 f4 [256, 64]
0	0xbe591fea	-0.2120358
1	0x3eba3ca0	0.36374378
2	0xbf2eeb61	-0.6832791
3	0x3e57d573	0.21077518
4	0xbd214e24	-0.03938116
5	0x3ee0355f	0.4379072
6	0xbf82beb6	-1.021445
7	0xbb4a8cf4	-0.0030906769
8	0xbecc7f7b	-0.3994101
9	0x3bf87a62	0.0075829485
10	0xbe82277e	-0.25420755
11	0xbe914b67	-0.2837784
12	0xbd125d88	-0.03573373
13	0xbe84f4cd	-0.25968018
14	0x3bf1cd4a	0.0073792087
15	0x3ea1c05a	0.31592065
16	0x3e814e4c	0.25255048
17	0x3f96fcb6	1.1795871
18	0xbd5d54ca	-0.05403594
19	0x3cf6f1e1	0.030144634
20	0x3f9068d1	1.1281987
21	0x3f009924	0.50233674
22	0xbde6ed2d	-0.112757064
23	0x3f200a3d	0.6251562
24	0x3eddc73d	0.4331607
25	0xbd9fd59c	-0.07804415
26	0x3e66327c	0.22480196
27	0x3e3d8936	0.18509373
28	0xbeb3ebd8	-0.35140872
29	0x3ee04520	0.43802738
30	0x3e4092bc	0.18805975
31	0x3de39d78	0.11114019
32	0x3edbb271	0.42909577
33	0x3ed50d05	0.41611496
34	0x3d823c06	0.06359105
35	0xbee3371b	-0.4437798
36	0x3de3830a	0.11108978
37	0x3f124d75	0.5714944
38	0x3f2f26cf	0.6841859
39	0x3e93f70b	0.28899416
40	0xbdbd850c	-0.09253892
41	0xbefc4ac5	-0.49275795
42	0x3f028dde	0.5099772
43	0x3e985947	0.29755613
44	0x3ed8f0cd	0.42371216
45	0x3dc5d1ce	0.09659158
46	0x3f6508c8	0.89466524
47	0x3ef3fd69	0.47654274
48	0xbe313861	-0.17306663
49	0x3e1d35c6	0.15352544
50	0xbd5787af	-0.052619632
51	0xbe950af2	-0.29109913
52	0x3f0fe7ca	0.5621306
53	0x3f00b855	0.5028127
54	0x3f147bc9	0.5800138
55	0x3e0ac9c0	0.13553524
56	0xbe8fe0b8	-0.28101134
57	0xbee8e389	-0.45486096
58	0xbeda50cf	-0.42639777
59	0x3ea847bf	0.32867238
60	0xbd329966	-0.043603323
61	0x3f061446	0.52374685
62	0x3e289ca7	0.16466008
63	0x3f047d4c	0.5175369
64	0xbed2042f	-0.41018817
65	0x3ee91e28	0.4553082
66	0xbda36893	-0.0797893
67	0x3eae2d9f	0.3401918
68	0x3e4f1d49	0.20226015
69	0x3e99b469	0.30020455
70	0xbed7c777	-0.42144367
71	0x3e24ad98	0.16081846
72	0x3ce3df20	0.027816355
73	0xbeb5b035	-0.35485998
74	0x3eaea7e8	0.34112477
75	0x3d9bb40e	0.07602702
76	0x3e0dd05d	0.13849016
77	0xbe971833	-0.2951065
78	0xbeb75499	-0.3580673
79	0x3e363d48	0.17796814
80	0xbe61017b	-0.21973221
81	0x3d3fc320	0.046816945
82	0xbf0c4e60	-0.5480709
83	0x3d8f8bc1	0.07009078
84	0xbe788177	-0.24268137
85	0x3dbc305a	0.0918891
86	0xbf08f6fb	-0.5350186
87	0x3d46c330	0.04852599
88	0x3ec13134	0.37732852
89	0xbdec0ec8	-0.11526257
90	0xbe2edffb	-0.1707763
91	0x3ea9aa5a	0.3313778
92	0xbec474e5	-0.38370433
93	0x3ecc8473	0.399448
94	0xbc4ceb5b	-0.012507285
95	0x3eb3ed94	0.35142195
96	0xbdb43c5c	-0.08800575
97	0xbdc94a06	-0.09828572
98	0xbe82e6af	-0.25566623
99	0x3e46e96e	0.19424984
100	0x3eb7a023	0.35864362
101	0x3cea765c	0.028620891
102	0x3d0bca86	0.03412869
103	0xbbfe33ad	-0.007757625
104	0xbed88d3b	-0.4229525
105	0x3c9a8d2b	0.018866142
106	0x3e32bbed	0.174545
107	0xbe3a57a2	-0.18197492
108	0x3f0c4daf	0.54806036
109	0x3e21c9fe	0.1579971
110	0xbe989f6a	-0.29809123
111	0xbcbeb655	-0.023280302
112	0xbe40b4fb	-0.18819039
113	0x3ca943b3	0.020662164
114	0xbe110eb1	-0.1416576
115	0xbe8d3a71	-0.2758365
116	0x3e4d8e1f	0.20073746
117	0x3e9a8135	0.30176702
118	0xbe03f4e0	-0.12886381
119	0x3e928701	0.28618625
120	0x3e16368f	0.1466925
121	0x3ece11d6	0.40247983
122	0x3d59060b	0.05298428
123	0xbdd7aa4e	-0.1053053
124	0xbde77466	-0.11301498
125	0x3e043ad7	0.1291307
126	0x3dcf0c34	0.101097494
127	0xbdaa7589	-0.08323199
128	0xbe41ab80	-0.18913078
129	0xbeb1bbe5	-0.34713665
130	0xbe84eaf6	-0.2596051
131	0xbd38a15c	-0.04507576
132	0xbee9a3ce	-0.45632786
133	0xbeb504a4	-0.35355103
134	0xbe8630b9	-0.26209047
135	0x3c951ea0	0.01820308
136	0x3c91de28	0.017806128
137	0x3f59c192	0.8506099
138	0x3d0d9188	0.034562618
139	0x3ede81d8	0.43458438
140	0x3f1da3b4	0.61577916
141	0x3e954dec	0.29161012
142	0xbe844635	-0.25834814
143	0xbdd69948	-0.10478455
144	0xbd74a789	-0.059730086
145	0xbf39de45	-0.7260478
146	0x3ea7f251	0.3280206
147	0xbd24ec51	-0.04026443
148	0x3bd93b21	0.006629363
149	0x3d99ffeb	0.075195156
150	0xbd9b423f	-0.07580995
151	0x3e508340	0.20362568
152	0x3f18e7d9	0.5972877
153	0x3f2c689f	0.6734714
154	0xbd448d97	-0.047986593
155	0xbf322b9d	-0.695978
156	0xbd9094b5	-0.070596136
157	0xbe6e03b1	-0.23243596
158	0xbe59957d	-0.21248432
159	0x3f0295f7	0.5101008
160	0x3da0c4b6	0.0785002
161	0xbd244e40	-0.040113688
162	0x3d20d65c	0.03926693
163	0x3dc2b5ef	0.09507357
164	0xbf020e0f	-0.508027
165	0xbec35aa8	-0.38155103
166	0x3e0f2f17	0.13982807
167	0xbd249302	-0.04017926
168	0x3e7d651f	0.24745606
169	0x3edb1475	0.42789045
170	0x3dac4441	0.08411456
171	0xbf3f49dc	-0.74722075
172	0x3f0c1e70	0.54733944
173	0x3df3c213	0.11902251
174	0xbeaf2d0d	-0.3421406
175	0x3e70ab20	0.23502779
176	0xbeaef12a	-0.3416837
177	0x3e32b6d3	0.17452554
178	0x3eb864ff	0.36014554
179	0x3ebb6ba9	0.36605576
180	0xbecaf8da	-0.39642984
181	0x3e9f101c	0.31066978
182	0xbf1fa8f8	-0.623672
183	0x3e5ed21f	0.21759842
184	0x3e002fe8	0.12518275
185	0x3f0d227a	0.5513073
186	0xbf9a67f4	-1.2062974
187	0xbe8435c7	-0.2582228
188	0x3def88c7	0.1169601
189	0x3f208cea	0.6271502
190	0xbf2754e5	-0.65363914
191	0x3e1572e9	0.14594616
192	0x3b55657d	0.0032561712
193	0xbedcc538	-0.43119216
194	0x3e6ed41b	0.233231
195	0x3e1d8578	0.15382946
196	0xbf00ab72	-0.50261605
197	0xbf203822	-0.6258565
198	0x3efcd64c	0.49382246
199	0xbd2c7aaf	-0.042109188
200	0xbc7489bd	-0.0149254175
201	0x3e4c12de	0.19929072
202	0xbee51e95	-0.44749895
203	0x3f1f132d	0.62138635
204	0x3ebd1ee9	0.36937645
205	0x3e0de38f	0.13856338
206	0xbe802f57	-0.25036117
207	0x3dd3c58e	0.10340415
208	0x3db83dd8	0.08996171
209	0xbcbf6a83	-0.023366218
210	0xbe89beae	-0.2690329
211	0x3e25fe45	0.16210277
212	0x3dfc3ff2	0.12316884
213	0xbe7a6c15	-0.24455293
214	0x3d953a56	0.07286517
215	0x3e4811af	0.19537996
216	0x3f1a1415	0.6018689
217	0x3ed6b81b	0.41937336
218	0xbdfe9d84	-0.124323875
219	0x3e34136a	0.17585531
220	0xbc8a81df	-0.01690763
221	0xbead1fcf	-0.3381333
222	0x3ec0c359	0.37649038
223	0xbe80c629	-0.25151184
224	0x3e08fdde	0.13378093
225	0xbee9e3ec	-0.45681703
226	0xbdb3b3bb	-0.08774515
227	0xbd369c72	-0.04458279
228	0xbe532294	-0.2061866
229	0x3ef8acb0	0.4856925
230	0xbec49e73	-0.38402137
231	0xbe50d9aa	-0.20395532
232	0x3f1c21ae	0.6098889
233	0x3dad9ae1	0.084768064
234	0xbecf3faf	-0.40478274
235	0x3b005bff	0.0019586084
236	0xbe2a5f15	-0.16637833
237	0xbe085c28	-0.13316405
238	0x3cfa9226	0.030587267
239	0xbef5f0e8	-0.4803536
240	0xbcd9068b	-0.026492378
241	0xbea45ea3	-0.32103452
242	0x3ed98159	0.42481497
243	0x3ebcabd0	0.36849833
244	0x3f051648	0.51987123
245	0x3f016c0a	0.5055548
246	0xbe990121	-0.29883674
247	0xbe531aff	-0.20615767
248	0x3ef427be	0.4768657
249	0xbedb490d	-0.4282917
250	0xbf2a0121	-0.6640797
251	0x3e363506	0.17793664
252	0xbe5e015b	-0.21680205
253	0x3f0404af	0.51569647
254	0xbe81b959	-0.25336722
255	0xbdd4e023	-0.10394313

rnn.bias_ih_l0 f4 [256]
0	0x3dfe06a0	0.12403607
1	0xbe4131cc	-0.18866652
2	0x3da74701	0.0816784
3	0xbda416ac	-0.08012137
4	0xbe88f31e	-0.26747984
5	0xbf0f579b	-0.5599305
6	0x3e9aca16	0.30232304
7	0xbef77edd	-0.48338977
8	0xbed564b7	-0.41678402
9	0x3e07632d	0.13221426
10	0x3d7c5ebe	0.06161379
11	0x3e3296dd	0.17440362
12	0x3e41965e	0.18905017
13	0xbda759ab	-0.081714
14	0xbcac1992	-0.021008287
15	0x3e3cd87b	0.18441956
16	0xbe093548	-0.13399231
17	0x3d98c07e	0.0745859
18	0x3da49020	0.08035302
19	0xbeaa649e	-0.3327989
20	0x3df83d6b	0.121210895
21	0x3e8b21e4	0.27174294
22	0xbd3bcbaf	-0.045848545
23	0xbf104e9c	-0.5636995
24	0x3e1f21ae	0.15540192
25	0xbe56188e	-0.20907804
26	0x3de83bce	0.11339532
27	0xbe3a2177	-0.18176828
28	0x3e3b262b	0.18276279
29	0x3e283e47	0.16430007
30	0x3dab0906	0.083513305
31	0x3ed463f0	0.41482496
32	0xbc3ae067	-0.011406041
33	0x3e3670f5	0.17816527
34	0xbd1d95cf	-0.038472947
35	0x3e46f23f	0.19428347
36	0xbcffd4b8	-0.031229362
37	0xbdf89283	-0.1213732
38	0xbe33553d	-0.17512985
39	0x3db8051c	0.089853495
40	0x3d35b2b9	0.044359896
41	0x3e4dcace	0.20096895
42	0x3cd2ae86	0.025717985
43	0x3ec5af86	0.38610476
44	0x3e3dfa0e	0.1855242
45	0x3e9861ff	0.29762265
46	0xbc1031fa	-0.008800978
47	0x3e8931f4	0.26795924
48	0x3ded3d37	0.115839414
49	0xbe219160	-0.15778112
50	0x3e51770a	0.20455566
51	0xbd6a3f26	-0.05718913
52	0xbbbc133e	-0.0057395985
53	0x3eac563d	0.33659545
54	0xbec9f7a0	-0.39446735
55	0xbea57b64	-0.32320702
56	0xbd8c4a5e	-0.06850122
57	0x3e0c071c	0.13674587
58	0xbc61e5bd	-0.013787684
59	0x3df45ca0	0.11931729
60	0x3e4260f5	0.18982299
61	0xbd8332f7	-0.06406205
62	0xbd673e52	-0.056455918
63	0xbd76b496	-0.060230814
64	0xbe6be1e4	-0.23035389
65	0x3ef1e3b7	0.47244045
66	0xbe6e5a80	-0.2327671
67	0xbe02e80c	-0.12783831
68	0xbca6a7a8	-0.020343617
69	0xbecc20de	-0.39868826
70	0xbe219c03	-0.1578217
71	0x3cdf29ed	0.027241671
72	0xbdcabe98	-0.09899634
73	0xbf12759e	-0.5721072
74	0xbf057a7f	-0.5214004
75	0xbed84896	-0.4224288
76	0xbc81d5e8	-0.015849069
77	0xbeb3a32b	-0.35085425
78	0x3e33c34a	0.17554966
79	0xbef1ed82	-0.47251517
80	0xbe937025	-0.28796497
81	0xbe575198	-0.2102722
82	0xbeff0aab	-0.49812827
83	0xbe12b08e	-0.14325163
84	0xbe342a95	-0.17594369
85	0xbeb352e4	-0.35024178
86	0xbea97492	-0.3309675
87	0x3f1f5456	0.6223806
88	0xbf16cfd1	-0.5891085
89	0xbe15b1be	-0.14618585
90	0xbec0396a	-0.37543803
91	0xbdf61824	-0.12016323
92	0xbee42f43	-0.44567308
93	0xbf1a6cb2	-0.60322106
94	0xbe730691	-0.23732974
95	0xbf19d95d	-0.60097295
96	0x3f09db59	0.5385032
97	0x3c432ffc	0.011913296
98	0xbf1f733b	-0.622852
99	0xbdd84fd0	-0.10562098
100	0xbf7987f6	-0.97473085
101	0xbee54a38	-0.44783187
102	0xbe1868a9	-0.14883675
103	0xbe3c9eaa	-0.184199
104	0xbee2578c	-0.44207418
105	0xbdf063cb	-0.11737784
106	0xbf131c70	-0.5746527
107	0xbf2420f0	-0.6411276
108	0xbf13a6af	-0.57676214
109	0xbd4720ae	-0.04861515
110	0xbf02af7a	-0.51049006
111	0xbeec6ca3	-0.46176633
112	0xbd6695e9	-0.05629531
113	0xbe196b9e	-0.14982459
114	0xbeb45ab2	-0.35225445
115	0xbe3f4425	-0.18678339
116	0xbeafb01d	-0.3431405
117	0xbf4a568c	-0.7903831
118	0xbd8a9341	-0.06766368
119	0xbe693b46	-0.22776517
120	0x3e5732c8	0.21015465
121	0xbe5f6ccb	-0.21818845
122	0xbec5cf82	-0.38634878
123	0xbebc0611	-0.36723378
124	0xbe44672c	-0.19179982
125	0xbeaa5dbb	-0.33274636
126	0xbec5dc88	-0.38644814
127	0xbec2f4ac	-0.38077295
128	0xbdada894	-0.08479419
129	0x3d2fa9ee	0.042886667
130	0x3e26c242	0.16285041
131	0x3dd00571	0.10157288
132	0xbe2756dc	-0.16341728
133	0x3cf4767e	0.029841658
134	0xbe05ee08	-0.13079083
135	0xbe0e0a88	-0.13871205
136	0xbd7bca65	-0.061472315
137	0xbd6bd246	-0.05757358
138	0x3d5470aa	0.051865257
139	0xbd96331c	-0.07333967
140	0xbe6f6c2a	-0.23381105
141	0x3ea4f632	0.32219082
142	0xbda70c4a	-0.08156641
143	0x3cfa99ed	0.030590976
144	0xbe2459c9	-0.16049875
145	0x3e888730	0.2666564
146	0x3e4dacbf	0.20085429
147	0xbdc6d14c	-0.09707889
148	0xbe3412f0	-0.17585349
149	0xbd8b0512	-0.067880765
150	0xbcecb68d	-0.02889564
151	0x3e7f436f	0.24928068
152	0xbdf8be18	-0.121456325
153	0xbd26d8f2	-0.04073424
154	0x3ea91f81	0.33031848
155	0xbd1fdb6c	-0.039027616
156	0x3dac2bc1	0.08406783
157	0xbdc7ca09	-0.09755332
158	0x3d42df69	0.04757634
159	0xbd70f79e	-0.058829896
160	0x3c4ff06d	0.012691599
161	0xbb160b19	-0.0022894798
162	0x3d5d6a65	0.054056544
163	0xbd9d1db2	-0.076716796
164	0x3e08e980	0.13370323
165	0x3c94a760	0.018146217
166	0xbed43d9d	-0.41453257
167	0x3d596e69	0.05308381
168	0xbd13689c	-0.035988435
169	0x3dc49c7e	0.09600161
170	0xbe1c1e58	-0.1524595
171	0x3e5e2f7e	0.21697804
172	0x3c922f59	0.017844843
173	0xbdbce0a7	-0.092225365
174	0x3e10f01e	0.14154097
175	0x3e4d12ae	0.20026657
176	0x3de16ada	0.110067084
177	0xbd83827c	-0.06421372
178	0x3c27205e	0.010200588
179	0x3d446569	0.047948275
180	0xbeb38d8e	-0.35068935
181	0xbe7c81cb	-0.24658887
182	0x3daf00e4	0.08545092
183	0x3e97823e	0.29591554
184	0xbdb3d558	-0.087809265
185	0xbe0cf672	-0.13765886
186	0xbdd5b304	-0.10434535
187	0x3d8e17c2	0.06938125
188	0x3e057d11	0.1303599
189	0xbde8aa45	-0.11360601
190	0xbe01b250	-0.12665677
191	0x3e50e70e	0.2040064
192	0x3e5c6af8	0.2152518
193	0xbc8412c9	-0.016122239
194	0x3d7bc039	0.061462615
195	0x3d04c6d7	0.03241619
196	0x3db1c97e	0.0868101
197	0xbee70c14	-0.45126402
198	0x3e959b53	0.29220065
199	0xbed5fb60	-0.41793346
200	0xbf07d414	-0.5305798
201	0x3e881806	0.26580828
202	0x3ec4ea7a	0.3846014
203	0x3d07ceec	0.03315632
204	0xbe97fa6f	-0.29683253
205	0x3e3593ac	0.17732114
206	0x3c2eeb95	0.010676284
207	0x3ed7b900	0.4213333
208	0x3e874e08	0.2642672
209	0x3df39159	0.11892957
210	0x3d4c5347	0.049884107
211	0x3e4d8872	0.20071581
212	0x3f0c1fed	0.54736215
213	0x3e156a4d	0.14591332
214	0x3e90b127	0.28260157
215	0x3ebd69a8	0.36994672
216	0x3d746cc6	0.059674047
217	0x3dcc98f9	0.09990115
218	0x3da86d68	0.082239926
219	0x3d97f425	0.07419614
220	0x3e239e89	0.15978445
221	0x3e90128c	0.2813915
222	0x3d4c285e	0.049843185
223	0x3dda5c8b	0.106621824
224	0x3e931181	0.28724292
225	0xbd833102	-0.06405832
226	0x3d448895	0.047981817
227	0x3f1a0b67	0.6017365
228	0x3e13398c	0.14377421
229	0x3aa7b0d1	0.0012793784
230	0x3e641f9b	0.22277682
231	0x3d1a6c6c	0.037701055
232	0x3bfd5dff	0.0077321525
233	0x3ed34d74	0.4127003
234	0x3e3b1145	0.18268307
235	0x3efb95d4	0.49137747
236	0x3e119690	0.14217591
237	0x3e6b7373	0.22993259
238	0xbd09e65e	-0.03366696
239	0xbe8fba0f	-0.2807164
240	0x3e963054	0.29333746
241	0xbd0701eb	-0.032960813
242	0x3e725839	0.23666467
243	0x3c6e44f5	0.014542808
244	0xbdb2c4c5	-0.08728937
245	0x3ead8f3b	0.3389834
246	0x3b27d3c0	0.002560839
247	0xbd4033a9	-0.046924267
248	0x3d4f55b9	0.05061886
249	0xbe365805	-0.17807014
250	0xbe27ceea	-0.16387525
251	0x3e7bdc3d	0.24595733
252	0x3c940430	0.018068403
253	0x3d601281	0.054705147
254	0xbd7a77fb	-0.06114958
255	0xbe8eaa9d	-0.27864543

rnn.bias_hh_l0 f4 [256]
0	0x3bb7f084	0.0056133885
1	0xbe60a90a	-0.21939483
2	0x3d5afa77	0.05346152
3	0xbe91bbed	-0.28463688
4	0xbd1b56b1	-0.037924472
5	0xbf147c76	-0.5800241
6	0x3eb15aaf	0.346395
7	0xbec1b0f0	-0.37830305
8	0xbec61c41	-0.3869343
9	0x3e047d96	0.12938532
10	0x3dc28b9d	0.09499285
11	0x3e005b25	0.12534769
12	0x3e25104b	0.16119497
13	0x3d5aab28	0.053385884
14	0xbd237e5e	-0.039915435
15	0x3dc296f5	0.09501449
16	0xbe006121	-0.12537052
17	0x3dddf40f	0.10837566
18	0x3e4f569f	0.20247887
19	0xbec1f0cc	-0.37879026
20	0x3de543f5	0.111946024
21	0x3e540b6a	0.20707479
22	0xbde92337	-0.1138367
23	0xbf012222	-0.5044271
24	0x3e97947f	0.2960548
25	0xbd0c1b9d	-0.03420602
26	0xbcbe1b21	-0.023206295
27	0xbe6eaec5	-0.23308857
28	0x3e08fde7	0.13378106
29	0x3c06096c	0.008180957
30	0xbc8032ae	-0.015649166
31	0x3edfd2ab	0.43715414
32	0xbe6c2a57	-0.23063026
33	0xbb316c75	-0.0027072702
34	0xbdf97e12	-0.12182249
35	0x3e28b801	0.16476442
36	0x3df7f15f	0.12106585
37	0xbd2c6490	-0.04208809
38	0xbd9516f3	-0.07279768
39	0x3d57e693	0.052710127
40	0x3d34d27d	0.04414605
41	0x3e2da2a5	0.16956575
42	0x3d6fe38a	0.058566608
43	0x3ea4baf6	0.3217389
44	0x3e3d21ba	0.18469897
45	0x3e9402d8	0.2890842
46	0x3c51869e	0.012788443
47	0x3dfb7dc3	0.122798465
48	0x3e2176d5	0.15767987
49	0xbe3baad5	-0.18326886
50	0x3dcfaaa7	0.10139971
51	0xbd75f28d	-0.060045768
52	0xbd8a3019	-0.06747455
53	0x3e517f70	0.2045877
54	0xbe7cc25f	-0.24683522
55	0xbe5b8b57	-0.21439873
56	0xbd8cea44	-0.0688062
57	0x3e33d2fd	0.17560954
58	0xbd1b73e4	-0.03795232
59	0x3e5a8968	0.21341479
60	0x3e4276e9	0.18990673
61	0xbdd09f74	-0.10186663
62	0xbe32d6e4	-0.17464787
63	0xbe4dd635	-0.20101245
64	0xbdf9f41e	-0.12204765
65	0x3ec1073b	0.3770083
66	0xbced32dd	-0.028954918
67	0xbe50c7e8	-0.20388758
68	0xbdd657d8	-0.104659736
69	0xbe9a7e2e	-0.30174392
70	0xbe5f7416	-0.21821627
71	0xbd89e32e	-0.06732784
72	0xbe167127	-0.14691602
73	0xbf2dcdf9	-0.67892414
74	0xbf084586	-0.53231084
75	0xbf119f48	-0.5688367
76	0xbdbbab45	-0.091635264
77	0xbe987a81	-0.29780963
78	0x3e464c83	0.19365124
79	0xbeb04bf5	-0.3443295
80	0xbeb4540d	-0.35220376
81	0xbe25dfa8	-0.161986
82	0xbeceeb39	-0.40413836
83	0xbe931b40	-0.28731728
84	0xbe2ca5a0	-0.16860056
85	0xbec01b85	-0.37520996
86	0xbe9788b5	-0.29596487
87	0x3f1261ef	0.57180685
88	0xbf473fa6	-0.77831495
89	0xbd6c4faf	-0.05769318
90	0xbea2d9ef	-0.31806895
91	0x3d764ee9	0.06013385
92	0xbeeead2a	-0.4661649
93	0xbf1db509	-0.6160436
94	0xbeb35bc0	-0.35030937
95	0xbf4d5290	-0.80204105
96	0x3eebbb32	0.46041256
97	0xbe1cc1b4	-0.15308267
98	0xbf14b91e	-0.58094966
99	0xbe715ba4	-0.23570114
100	0xbf850599	-1.0392333
101	0xbe9aba09	-0.3022006
102	0xbe12bc27	-0.14329587
103	0xbe0fda27	-0.14048062
104	0xbecda2ea	-0.40163356
105	0xbdd4a26c	-0.10382542
106	0xbf218b4f	-0.63103193
107	0xbef6964d	-0.48161545
108	0xbf2cd8c0	-0.67518234
109	0xbdd49bdc	-0.1038129
110	0xbf0a4479	-0.5401073
111	0xbe844692	-0.2583509
112	0x3d9c7a5f	0.07640528
113	0xbe97edfe	-0.2967376
114	0xbebd9d19	-0.37033918
115	0xbeabeeb0	-0.33580542
116	0xbe92dd98	-0.28684688
117	0xbf2dea2e	-0.67935455
118	0x3cb71823	0.022350376
119	0xbe683a7c	-0.2267856
120	0x3e162d4f	0.14665721
121	0xbe8ecac3	-0.2788907
122	0xbee54413	-0.447785
123	0xbe6185ec	-0.22023743
124	0xbdbfaac1	-0.093587406
125	0xbee98c76	-0.45614976
126	0xbef5b785	-0.47991577
127	0xbeb32849	-0.34991673
128	0xbe32d4c8	-0.17463982
129	0x3cb713cb	0.022348305
130	0x3e372acd	0.17887421
131	0xbce1ad42	-0.027548436
132	0xbe5a7878	-0.21335018
133	0xbd1edcae	-0.038784675
134	0x3d857d3b	0.065180264
135	0xbe108682	-0.1411381
136	0x3d526ec8	0.05137518
137	0xba83e28c	-0.0010062023
138	0xbdf48103	-0.119386695
139	0x3d7e8000	0.06213379
140	0xbe5b77e4	-0.21432453
141	0x3e5de516	0.2166942
142	0x3e0d4013	0.13793974
143	0x3d98bcb9	0.07457871
144	0xbd5633ed	-0.052295614
145	0x3d704f2f	0.058669265
146	0x3e39178f	0.18075393
147	0xbe075eae	-0.13219711
148	0xbe286d2a	-0.16447893
149	0xbe17dd1b	-0.14830439
150	0xbdc8c89e	-0.0980389
151	0x3e3755cf	0.17903827
152	0xbe4abfcb	-0.19799726
153	0xbe60b50c	-0.21944064
154	0x3dcdf423	0.10056331
155	0xbd982b35	-0.07430116
156	0x3e1a05ac	0.15041226
157	0xbd4114ba	-0.047138907
158	0xbd42dfec	-0.04757683
159	0x3cd7d967	0.026348783
160	0x3d179fb9	0.037017558
161	0x3d92fe99	0.07177467
162	0xbd0325dd	-0.03201853
163	0x3c097500	0.008389711
164	0x3dfb7c0d	0.1227952
165	0xbc917304	-0.017755039
166	0xbf02b10b	-0.51051396
167	0x3d480cbb	0.048840266
168	0xbcb00742	-0.021487836
169	0x3e263554	0.1623128
170	0xbba404ff	-0.0050054784
171	0x3e763ea4	0.24047333
172	0x3ca0e66b	0.019641122
173	0xbe0f80f1	-0.14014031
174	0x3e5f61d2	0.21814659
175	0x3e8f8bf2	0.28036457
176	0x3d7367dd	0.059425224
177	0x3d1448b3	0.036202144
178	0x3d868e63	0.06570127
179	0x3df390b4	0.11892834
180	0xbdf135a4	-0.11777809
181	0xbe240ed1	-0.16021277
182	0x3d7f163e	0.06227707
183	0x3e90ea93	0.28303966
184	0xbe37bba6	-0.17942676
185	0xbea46f5d	-0.32116213
186	0xbe51740a	-0.20454422
187	0xbce3f60f	-0.02782729
188	0x3e571738	0.21004951
189	0xbdab19eb	-0.08354553
190	0xbd57f4c9	-0.05272368
191	0x3e2ae5ee	0.16689274
192	0x3dd3198f	0.10307609
193	0xbc329207	-0.010899073
194	0x3ca723d9	0.020402836
195	0x3df6c2a4	0.120488435
196	0x3db88068	0.090088665
197	0xbef21e5d	-0.4728879
198	0x3e7d1773	0.24715976
199	0xbe935b76	-0.28780717
200	0xbedf53c1	-0.43618587
201	0x3e2c6822	0.16836599
202	0x3e4913fd	0.19636531
203	0x3e2c037b	0.16798203
204	0xbe9f0bf3	-0.31063804
205	0x3e32e3d8	0.17469728
206	0xbe22fbe2	-0.15916398
207	0x3eb5c011	0.35498098
208	0x3ea78204	0.32716382
209	0x3da21ec4	0.07916024
210	0x3de46ece	0.11153947
211	0x3e189a5e	0.14902636
212	0x3eceded0	0.40404367
213	0x3e8f35aa	0.2797063
214	0x3e954178	0.2915151
215	0x3e2b3787	0.16720401
216	0x3d259850	0.04042846
217	0x3e302bf9	0.17204274
218	0x3e547312	0.20747021
219	0x3e58817f	0.21143149
220	0x3e81052a	0.25199252
221	0x3e16cd4b	0.1472675
222	0x3daf31e3	0.08554437
223	0x3d624ceb	0.055249136
224	0x3eaf890f	0.34284255
225	0xbda211b6	-0.07913534
226	0x3bc449ca	0.0059902417
227	0x3f061062	0.5236875
228	0x3e989088	0.2979777
229	0xbd87f803	-0.06639101
230	0x3e44e5dc	0.1922831
231	0x3e18e3fd	0.1493072
232	0xbd1ca4fe	-0.038243286
233	0x3f094ea8	0.53635645
234	0x3de5fe10	0.11230099
235	0x3f0682e2	0.5254346
236	0x3e82e633	0.25566253
237	0x3e6d2f02	0.23162463
238	0xbdbf8c37	-0.09352916
239	0xbdf7100a	-0.12063606
240	0x3e5a9233	0.21344833
241	0x3c1ddff2	0.009635912
242	0x3e0484e0	0.12941313
243	0x3db0f711	0.08640874
244	0xbe0b038e	-0.13575575
245	0x3e8ddc36	0.2770707
246	0xbde754f4	-0.112955004
247	0xbe154e21	-0.14580585
248	0x3ce8d368	0.028421119
249	0xbe3a750d	-0.18208714
250	0xbe0400aa	-0.12890878
251	0x3e8643c7	0.26223585
252	0x3e65ec57	0.22453438
253	0x3c0679a1	0.0082077095
254	0x3da17bec	0.07884964
255	0xbe96a98b	-0.29426226

rnn.weight_ih_l0_reverse f4 [256, 37]
0	0xbea9323e	-0.33046144
1	0x3e78ef9d	0.24310155
2	0x3be91dac	0.007114133
3	0x3e816ac7	0.25276777
4	0x3e31d96a	0.17368093
5	0x3eff0893	0.4981123
6	0xbeb56157	-0.35425827
7	0xbedd4ac4	-0.43221104
8	0x3ec06eeb	0.37584624
9	0x3ee209d9	0.44148138
10	0x3e01f6df	0.1269183
11	0xbd84c1de	-0.0648229
12	0x3d943cfb	0.072381936
13	0x3e953b27	0.29146692
14	0x3ef1d14c	0.47229993
15	0xbd5e037a	-0.054202534
16	0x3e1f29a3	0.15543227
17	0x3ea133cc	0.3148483
18	0xbe66ed0f	-0.22551368
19	0xbdf96cdd	-0.12178967
20	0xbe0dd1c0	-0.13849545
21	0xbea1e32d	-0.31618634
22	0xbefd0484	-0.49417508
23	0xbe391008	-0.18072522
24	0x3ed9556e	0.4244799
25	0x3f453273	0.77030104
26	0x3e1c8de2	0.15288499
27	0x3e722e71	0.23650528
28	0x3ee98cbc	0.45615184
29	0xbf0f82f2	-0.5605918
30	0x3e4ef3a1	0.20210125
31	0xbefa9050	-0.48938227
32	0xbe00c67c	-0.12575716
33	0xbf2a2fcc	-0.6647918
34	0x3f781a2b	0.9691493
35	0x3f054b8d	0.52068406
36	0xbf7c8012	-0.9863292
37	0x3e9828a5	0.2971851
38	0x3e3fbdf4	0.18724805
39	0x3d78bb5c	0.060725555
40	0xbec9a0e2	-0.39380556
41	0xbe9df4d2	-0.30850846
42	0xbe19437b	-0.14967148
43	0x3ea7c3a9	0.32766464
44	0xbed4642b	-0.41482672
45	0x3e69e916	0.22842821
46	0x3ddfed46	0.10933928
47	0xbd996046	-0.07489066
48	0xbf149cf9	-0.5805202
49	0x3e16920e	0.14704153
50	0xbe8d90bc	-0.27649486
51	0x3e8dcb23	0.27694044
52	0x3e3285ea	0.17433897
53	0xbd2e9a7c	-0.042627797
54	0xbe2bf7c9	-0.16793741
55	0xbe6875e2	-0.22701219
56	0xbcd45a8e	-0.025922086
57	0xbec7480b	-0.38922152
58	0x3eb240c7	0.34815046
59	0x3cbf8237	0.023377521
60	0xbe0f9efb	-0.1402549
61	0x3def324f	0.116795175
62	0x3d65a0a3	0.0560614
63	0x3e3fd63d	0.18734069
64	0xbe9366c7	-0.2878935
65	0xbe90c1f1	-0.28272966
66	0xbd35681b	-0.044288736
67	0xbd223f76	-0.039611302
68	0x3d6ecf92	0.058303423
69	0xbe5179d6	-0.20456633
70	0x3e19d60e	0.15023062
71	0x3eb27abd	0.34859267
72	0x3e056d41	0.13029958
73	0x3f458e53	0.77170295
74	0xbd9a47c1	-0.07533217
75	0x3ef46c6f	0.47738978
76	0x3e1f5866	0.15561065
77	0x3ea1e7ff	0.3162231
78	0x3eee8d27	0.46592066
79	0x3e86cbef	0.26327464
80	0xbda92a03	-0.08259966
81	0xbe159ee1	-0.14611389
82	0x3d3d1b05	0.046168346
83	0x3e760989	0.24027075
84	0xbed5ed7a	-0.41782743
85	0x3de13c29	0.10997803
86	0xbe9719f1	-0.2951198
87	0x3ec46a38	0.38362288
88	0xbd0c8594	-0.034307078
89	0x3e1cdf22	0.15319493
90	0xbebfd131	-0.37464288
91	0xbf03f5d0	-0.51546955
92	0x3eda6b27	0.42659876
93	0x3e14e5ed	0.14540835
94	0x3db16ffa	0.08663936
95	0xbec6e304	-0.38845074
96	0x3ee1b4d4	0.44083273
97	0xbe88473e	-0.26616853
98	0x3d95afef	0.07308947
99	0xbde86185	-0.113467254
100	0xbd4855b2	-0.04890985
101	0xbd5b752e	-0.053578548
102	0x3f0afbcd	0.5429047
103	0x3ea45449	0.32095554
104	0x3f198ead	0.5998333
105	0xbc1940e7	-0.009353853
106	0x3fafeb6f	1.3743724
107	0xbf19bf1d	-0.6005724
108	0xbfd487a8	-1.6603899
109	0x3f4c5dbe	0.7983054
110	0x4005f5c9	2.0931265
111	0x3d99c0eb	0.07507499
112	0x3e006200	0.12537384
113	0xbe206070	-0.15661788
114	0x3db6e7cd	0.08930931
115	0x3dcfb728	0.10142356
116	0xbc8655cb	-0.016398331
117	0x3ec6f338	0.38857436
118	0x3cb37456	0.02190606
119	0xbe0096f8	-0.1255759
120	0x3e08be32	0.13353804
121	0xbd6d9893	-0.058006834
122	0xbdbf071b	-0.09327527
123	0xbd256bf7	-0.040386166
124	0xbdfbc632	-0.12293662
125	0xbd512a45	-0.051065702
126	0xbe2e82d2	-0.17042091
127	0xbcf0e754	-0.02940718
128	0x3ddabd61	0.106806524
129	0xbcde7fef	-0.027160613
130	0xbd53d48b	-0.05171637
131	0x3e08cc28	0.1335913
132	0xbd772a55	-0.060343105
133	0xbbe3e99c	-0.0069553386
134	0x3cb1c705	0.021701345
135	0xbcfb07d6	-0.030643385
136	0xbd62e507	-0.0553942
137	0xbdc03f09	-0.09387023
138	0x3ba7eca5	0.005124646
139	0xbda5aba7	-0.08089381
140	0x3eb1b6e7	0.34709856
141	0x3d71a493	0.05899484
142	0xbe6c2094	-0.23059303
143	0xbe90f08a	-0.28308517
144	0xbe96ebaf	-0.29476687
145	0x3e530d22	0.20610479
146	0x3fefa419	1.8721954
147	0x3edbcc81	0.42929462
148	0xbf06e320	-0.52690315
149	0xbe2126e3	-0.1573749
150	0xbee24033	-0.44189605
151	0xbcc0f85e	-0.02355593
152	0x3e77abe8	0.24186671
153	0xbec02aa1	-0.37532523
154	0xbf0406b2	-0.51572716
155	0x3e718921	0.23587467
156	0x3e98f37a	0.29873258
157	0x3dd38616	0.10328309
158	0x3e4fa368	0.20277178
159	0xbdf1396d	-0.11778531
160	0x3ecdc5f6	0.40190095
161	0xbec4d366	-0.38442534
162	0x3cf43883	0.029812103
163	0xbebe43cb	-0.37161097
164	0x3dc35b36	0.095388815
165	0xbd4d838a	-0.050174274
166	0x3f0e4aae	0.555827
167	0x3eb2ebf4	0.34945643
168	0x3d9a0295	0.07520024
169	0x3c57b2dd	0.013165203
170	0x3e4e758f	0.20162033
171	0x3deacb7c	0.11464593
172	0xbd9fa33e	-0.07794808
173	0x3d2d7ac0	0.04235339
174	0x3f891bae	1.0711572
175	0x3da7812a	0.08178933
176	0x3e917bf9	0.28414896
177	0xbe92e844	-0.2869283
178	0x3cea88fb	0.02862977
179	0xbdf0d2be	-0.11758946
180	0xbefe8457	-0.49710342
181	0xbf459f50	-0.77196217
182	0xbfba85ef	-1.4572123
183	0x3dbe9708	0.09306151
184	0xbbe5660f	-0.0070006917
185	0xbe13761b	-0.14400522
186	0xbe2d442f	-0.16920541
187	0xbdf74d6a	-0.120753124
188	0xbc32a607	-0.010903842
189	0x3e85d727	0.2614071
190	0xbddabd9a	-0.10680695
191	0x3e14da37	0.14536367
192	0x3e63c6c4	0.22243792
193	0xbdcc18ea	-0.099656895
194	0x3d04e3be	0.032443754
195	0x3ed9bf8d	0.42528954
196	0xbda741e1	-0.08166862
197	0xbe238e1f	-0.15972184
198	0xbe8f81f8	-0.28028846
199	0x3e28dae2	0.16489747
200	0xbe8ee6de	-0.27910513
201	0xbe2142bc	-0.15748113
202	0xbd6f944d	-0.05849104
203	0xb9a8e588	-0.0003221447
204	0x3e2a5361	0.16633369
205	0x3dddccd1	0.10830081
206	0x3e6f4c00	0.23368835
207	0xbe76b082	-0.2409077
208	0xbea585b9	-0.32328585
209	0x3e232f1e	0.15935943
210	0xbe24b3e2	-0.16084245
211	0xbd409c80	-0.04702425
212	0x3d209451	0.039203946
213	0xbd2f60ec	-0.04281704
214	0x3e90bc77	0.28268787
215	0xbe3a7e69	-0.18212284
216	0x3d374dfd	0.04475211
217	0x3da0346e	0.078225
218	0xbe36066c	-0.17775887
219	0xbf59e1be	-0.8511008
220	0x3f90267b	1.1261743
221	0x405aab20	3.4166946
222	0xbf07cb22	-0.5304433
223	0xbee39105	-0.4444658
224	0x3e94a848	0.29034638
225	0xbcde3d30	-0.027128786
226	0xbeee2673	-0.4651371
227	0xbeea461b	-0.4575661
228	0xbe0afe05	-0.13573463
229	0xbebbcd91	-0.36680272
230	0x3ea46be6	0.3211357
231	0xbe3a3c44	-0.18187052
232	0xbeb8d923	-0.36103162
233	0xbed30fa9	-0.41222885
234	0xbed7db3e	-0.42159456
235	0xbe5bab2b	-0.21452014
236	0x3ee21cd4	0.4416262
237	0xbdab29d7	-0.0835759
238	0xbdd466ed	-0.10371194
239	0x3e13603b	0.14392178
240	0xbe62ba84	-0.22141463
241	0x3e71d77f	0.23617361
242	0x3b7a8442	0.0038225804
243	0xbf087235	-0.53299266
244	0x3e46a3af	0.19398378
245	0x3dede13a	0.11615224
246	0xbef866bc	-0.4851588
247	0xbe9808c6	-0.29694194
248	0xbf0796d2	-0.5296451
249	0xbdd5e381	-0.104437836
250	0xbf0ddd23	-0.5541555
251	0xbc90f5a4	-0.017695256
252	0x3cab48ac	0.020908676
253	0xbe05b131	-0.13055874
254	0xbf81d966	-1.014447
255	0x3f547b46	0.830006

rnn.weight_hh_l0_reverse f4 [256, 64]
0	0x3e3d6069	0.18493809
1	0x3d2fea6c	0.04294817
2	0xbecd8124	-0.4013759
3	0xbc49e7fa	-0.012323374
4	0x3e81dcda	0.2536381
5	0x3d80b007	0.062835746
6	0xbd7ab606	-0.061208747
7	0x3efb1d31	0.4904571
8	0x3e9a7a6a	0.3017152
9	0xbf15586c	-0.58338046
10	0x3ec1e55e	0.37870306
11	0xbde4918a	-0.11160572
12	0x3eb9708a	0.36218673
13	0x3e4f07ad	0.20217772
14	0xbe1e84ff	-0.15480421
15	0xbed38c08	-0.41317773
16	0xbf206a02	-0.62661755
17	0xbdff536a	-0.12467082
18	0xbe2e6fc9	-0.1703483
19	0xbe0e297b	-0.13883011
20	0x3e195751	0.14974715
21	0x3e072d71	0.13200928
22	0xbeb68610	-0.35649157
23	0xbe873bca	-0.26412803
24	0xbed40b0f	-0.41414687
25	0xbe64843f	-0.22316073
26	0x3e5159b1	0.20444371
27	0xbe0540c3	-0.13012986
28	0x3f29b7f3	0.6629631
29	0xbdae2d07	-0.08504682
30	0xbdf7ce61	-0.120999105
31	0x3e4d234c	0.20032996
32	0x3dced3f6	0.10099022
33	0xbd21ef4c	-0.039534852
34	0xbddc019a	-0.10742493
35	0x3dedbd96	0.11608426
36	0x3e74ff0e	0.2392542
37	0x3af1d753	0.0018451012
38	0xbe524620	-0.20534563
39	0xbe35186a	-0.17685094
40	0xbea41877	-0.32049915
41	0x3e0edab0	0.1395061
42	0x3dac9995	0.08427731
43	0x3e64fb41	0.22361471
44	0xbf05ffe8	-0.52343607
45	0x3e95b4ca	0.29239494
46	0x3e04b437	0.12959372
47	0x3e11bba8	0.14231741
48	0xbf0cbba9	-0.54973847
49	0x3e0f7fd6	0.1401361
50	0x3f2a8bd5	0.66619617
51	0xbf0b9eef	-0.5453939
52	0x3dccee12	0.10006346
53	0xbd59143b	-0.05299781
54	0xbf09eb0a	-0.53874266
55	0x3ed3d275	0.41371503
56	0xbe781831	-0.24227978
57	0x3e91ac79	0.284519
58	0xbea660eb	-0.32495818
59	0x3e8fe273	0.28102455
60	0x3f049844	0.5179484
61	0xbde24105	-0.11047558
62	0x3e0f0bde	0.1396937
63	0xbec3b87a	-0.38226682
64	0xbad295fe	-0.001606643
65	0xbe1974d8	-0.14985979
66	0xbf5f5254	-0.87235
67	0xbb23d500	-0.0024998784
68	0x3e878364	0.2646743
69	0x3ca9e09b	0.020736983
70	0xbc399c01	-0.011328698
71	0xbef868cb	-0.4851745
72	0xbf3159e2	-0.69277775
73	0xbe5ab304	-0.21357352
74	0x3e19dd66	0.15025863
75	0x3ea994fb	0.33121476
76	0xbd62b812	-0.055351324
77	0x3e7a60e3	0.24451022
78	0xbe447913	-0.19186811
79	0xbf557765	-0.83385307
80	0xbeeda27d	-0.4641303
81	0x3ecea105	0.40357223
82	0xbf289a81	-0.65860754
83	0x3e1ce3fd	0.15321346
84	0x3e46026b	0.1933686
85	0x3e4af26b	0.19819038
86	0x3e27ea53	0.16397981
87	0xbe756524	-0.23964363
88	0xbeee3795	-0.4652678
89	0x3e92e362	0.28689104
90	0xbee9bc2b	-0.45651373
91	0x3c86dc3e	0.016462442
92	0xbe4fe439	-0.20301904
93	0xbe65a56f	-0.22426389
94	0xbe85e89e	-0.26154035
95	0x3d7ebc0c	0.062191054
96	0xbe27a041	-0.16369726
97	0xbe117c10	-0.14207482
98	0x3d959ce8	0.07305318
99	0x3f5a5e83	0.85300463
100	0xbea25a95	-0.31709734
101	0xbdddc267	-0.10828095
102	0xbef9bd59	-0.48777273
103	0x3f0675fe	0.5252379
104	0xbe92eabc	-0.28694713
105	0xbd5e64df	-0.054295417
106	0x3f181af1	0.5941611
107	0x3ebf8266	0.37404174
108	0xbec6d8c4	-0.38837254
109	0x3dc8f002	0.09811403
110	0xbec73c2c	-0.38913095
111	0xbeb1a114	-0.34693205
112	0xbf60af15	-0.87767154
113	0xbdceecaa	-0.10103734
114	0xbe75ec26	-0.24015865
115	0xbf2fe684	-0.68711114
116	0xbef6da94	-0.48213637
117	0x3f00b03a	0.502689
118	0xbeafe103	-0.34351358
119	0xbdf938ae	-0.12169014
120	0x3e651c42	0.22374061
121	0x3e7f44ee	0.24928638
122	0xbe6f1841	-0.23349096
123	0x3eb8e2c2	0.36110502
124	0x3d68e604	0.056859985
125	0xbe642531	-0.22279812
126	0xbf12fb8c	-0.5741508
127	0x3e411001	0.18853761
128	0xbd3e0ec9	-0.04640082
129	0x3f1871d0	0.59548664
130	0x3e5b7fbe	0.21435449
131	0xbc90adcc	-0.017660998
132	0xbe8085a8	-0.25101972
133	0x3ed9c017	0.42529365
134	0x3cee73c7	0.029107941
135	0x3d24c864	0.04023017
136	0xbd4d2f18	-0.05009374
137	0x3e063c5c	0.13108963
138	0xbc049cd9	-0.008094036
139	0x3d199d80	0.03750372
140	0x3e9d9429	0.307771
141	0x3f528053	0.8222706
142	0x3aa612ed	0.0012670435
143	0xbebf35e8	-0.37345815
144	0xbef79e36	-0.48362893
145	0x3f07ac3c	0.52997184
146	0x3ed304e8	0.4121468
147	0xbf0af45c	-0.5427911
148	0x3e7cad55	0.24675496
149	0xbe3065f8	-0.17226398
150	0xbec79474	-0.38980448
151	0x3e374d1f	0.17900513
152	0xbde42740	-0.11140299
153	0x3e509d27	0.20372449
154	0x3e0e48c0	0.1389494
155	0xbd1f36d7	-0.03887066
156	0x3ebccca2	0.36874872
157	0x3f3dead2	0.7418643
158	0xbba18c74	-0.0049300734
159	0xbf183da9	-0.59469086
160	0x3ebdd86b	0.37079176
161	0xbe146baf	-0.14494203
162	0xbe31993b	-0.17343609
163	0x3c634d5b	0.013873423
164	0xbdacb8ff	-0.08433723
165	0x3e77734e	0.24165079
166	0x3dde2e0a	0.10848625
167	0x3cd9a208	0.02656652
168	0x3edd89ff	0.43269345
169	0xbead410d	-0.33838692
170	0xbe5760fd	-0.21033092
171	0xbdaa8cd2	-0.083276406
172	0xbf016c91	-0.50556284
173	0x3e905018	0.28186107
174	0xbf4a9243	-0.7912943
175	0xbd8770b6	-0.06613295
176	0xbd87ebf0	-0.066367984
177	0x3dc992c7	0.09842449
178	0x3f3e929c	0.7444246
179	0x3e8142aa	0.25246173
180	0x3e98df83	0.29858026
181	0x3f35f520	0.71077156
182	0xbe0bc95e	-0.13651034
183	0xbe6e2d87	-0.23259555
184	0xbc891d7c	-0.016737692
185	0x3e856b09	0.26058224
186	0x3ee9935c	0.4562024
187	0xbe5ca9fb	-0.21549217
188	0x3ee34a5c	0.4439267
189	0x3e03acf7	0.1285895
190	0x3e27057a	0.16310683
191	0xbc2c4acc	-0.01051588
192	0x3f02da55	0.511144
193	0x3e8f0770	0.27935362
194	0xbeb7a4af	-0.3586783
195	0x3df0f46e	0.11765371
196	0xbe8287d7	-0.25494263
197	0xbe1fcdf1	-0.15605904
198	0x3ebd6799	0.369931
199	0x3eeb5128	0.45960355
200	0xbe7d38f0	-0.24728751
201	0x3e092f48	0.13396943
202	0xbe73b381	-0.23798944
203	0x3e16560f	0.14681266
204	0x3cf45ec4	0.029830344
205	0xbe121a82	-0.14267924
206	0x3f41525a	0.75516284
207	0xbe3dce63	-0.18535762
208	0xbe96f10a	-0.29480773
209	0x3e39827f	0.18116187
210	0xbe3210a4	-0.1738916
211	0x3e34fcb8	0.1767453
212	0x3e66c533	0.22536163
213	0xbf12d690	-0.57358646
214	0xbf84d1b1	-1.0376493
215	0xbea62bb3	-0.32455215
216	0xbe78e894	-0.24307472
217	0xbefe831f	-0.49709412
218	0x3d416d7d	0.047223557
219	0x3ef07fd1	0.46972516
220	0x3d3c3ed0	0.04595834
221	0x3ef508ff	0.47858426
222	0x3e297aee	0.165508
223	0x3e47fcc0	0.1953001
224	0xbe068961	-0.13138343
225	0x3ef0444a	0.469271
226	0x3f331a23	0.69961756
227	0x3f084666	0.5323242
228	0xbe52634e	-0.20545694
229	0xbb89dfe0	-0.004207596
230	0xbefbcfa6	-0.4918186
231	0x3e54494d	0.20731087
232	0xbdcaf80c	-0.099105924
233	0x3f6d5b19	0.9271713
234	0xbd9c23a1	-0.07623983
235	0x3ddd6fe8	0.1081236
236	0xbcc46504	-0.02397395
237	0x3f467fec	0.77538943
238	0xbf0525cb	-0.5201079
239	0xbf84f744	-1.038796
240	0x3e6ca0d3	0.23108225
241	0x3d82fd5a	0.06395979
242	0x3eb2985c	0.34881866
243	0xbe735936	-0.237645
244	0xbf0a32aa	-0.5398356
245	0xbee97e58	-0.45604205
246	0x3f1115d1	0.56673914
247	0xbf10e6b5	-0.5660203
248	0x3f1b94ac	0.6077373
249	0xbd41ed98	-0.047345728
250	0x3dd61b08	0.104543746
251	0xbf66825c	-0.9004266
252	0xbee1e90d	-0.44123116
253	0xbeb4f61f	-0.35344025
254	0xbeb5073b	-0.3535708
255	0xbee58d97	-0.44834587
